…
|   2        N/A   N/A    N/A                                      N/A        |
|   3        N/A   N/A    N/A                                      N/A        |
|   4        N/A   N/A    N/A                                      N/A        |
|   5        N/A   N/A    N/A                                      N/A        |
|   6        N/A   N/A    N/A                                      N/A        |
|   7        N/A   N/A    N/A                                      N/A        |



buntu@ip-172-31-81-224:~/Conversion-Rate-Improvement$ python3.7 eCommerce_ConversionRate_Gaudi.py
Loading Habana modules from /usr/lib/habanalabs/
BinaryClassification(
  (layer_1): Linear(in_features=46, out_features=32, bias=True)
  (layer_2): Linear(in_features=32, out_features=32, bias=True)
  (layer_3): Linear(in_features=32, out_features=32, bias=True)
  (layer_out): Linear(in_features=32, out_features=1, bias=True)
  (relu): ReLU()
  (dropout): Dropout(p=0.1, inplace=False)
  (batchnorm1): BatchNorm1d(32, eps=1e-05, momentum=0.1, affine=True, track_running_stats=True)
  (batchnorm2): BatchNorm1d(32, eps=1e-05, momentum=0.1, affine=True, track_running_stats=True)
  (batchnorm3): BatchNorm1d(32, eps=1e-05, momentum=0.1, affine=True, track_running_stats=True)
)

--- 2255.0525732040405 seconds ---
BinaryClassification(
  (layer_1): Linear(in_features=46, out_features=32, bias=True)
  (layer_2): Linear(in_features=32, out_features=32, bias=True)
  (layer_3): Linear(in_features=32, out_features=32, bias=True)
  (layer_out): Linear(in_features=32, out_features=1, bias=True)
  (relu): ReLU()
  (dropout): Dropout(p=0.1, inplace=False)
  (batchnorm1): BatchNorm1d(32, eps=1e-05, momentum=0.1, affine=True, track_running_stats=True)
  (batchnorm2): BatchNorm1d(32, eps=1e-05, momentum=0.1, affine=True, track_running_stats=True)
  (batchnorm3): BatchNorm1d(32, eps=1e-05, momentum=0.1, affine=True, track_running_stats=True)
)
{'avg_jsDuration': [0.0, 1.74, 2.17, 2.61, 3.04, 3.48], 'avg_timeToDomContentLoadedEventStart': [0.0, 0.43, 0.43, 0.43, 0.43, 0.87], 'avg_timeToDomainLookupEnd': [0.0, 0.43, 0.43, 0.43, 0.43, 0.87]}
